examples/xor2.onnx (onnx, 2138 bytes, 3 tensors)

StatefulPartitionedCall/sequential_5/dense_11/MatMul/ReadVariableOp:0 f4 [4, 1]
000000 66 38 db 40 f3 c2 d9 40 66 ae e8 40 ec 1a 2c 3f
       6.8506346 6.8050475 7.271289 0.6722858

StatefulPartitionedCall/sequential_5/dense_10/MatMul/ReadVariableOp:0 f4 [2, 4]
000000 e1 18 28 40 39 a6 d7 bf 1e 8d a5 bf f4 54 58 bf
       2.6265185 -1.6847602 -1.293369 -0.8450463
000010 66 59 28 c0 3b f6 d6 3f 91 ee a4 3f f0 66 67 be
       -2.6304564 1.6793894 1.2885305 -0.22597861

StatefulPartitionedCall/sequential_5/dense_10/BiasAdd/ReadVariableOp:0 f4 [4]
000000 aa 33 39 bb 12 15 2c bb ce 42 5b bb 00 00 00 00
       -0.0028259554 -0.0026257676 -0.0033456567 0.0
