examples/xor2.onnx (onnx, 2105 bytes, 3 tensors)

StatefulPartitionedCall/sequential_1/dense_3/MatMul/ReadVariableOp:0 f4 [4, 1]
00000000: 70b5 d340 7bbb 9740 08d5 b4c0 efb6 91c0
6.615898 4.741636 -5.651005 -4.5535808

StatefulPartitionedCall/sequential_1/dense_2/MatMul/ReadVariableOp:0 f4 [2, 4]
00000000: 49f1 71c0 2d7e 9340 28eb e03f cdee d23f
00000010: e00d 7240 15fb 43c0 3633 e63f 325e 0e40
-3.7803519 4.6091523 1.7571764 1.6479126 3.7820969 -3.0621998 1.7984378 2.2244992

StatefulPartitionedCall/sequential_1/dense_2/BiasAdd/ReadVariableOp:0 f4 [4]
00000000: 5251 3cbb 67eb 2ebb 31ed e0bf dcef d2bf
-0.0028734994 -0.0026690604 -1.7572385 -1.6479449
